saved_models/nn_final_model.pth (torch, 284277 bytes, 9 tensors)

network.0.weight f4 [256, 95]
0	0x3ca39c51	0.019971998
1	0x3e3ae935	0.18253024
2	0x3e405410	0.18782067
3	0xbd2603a7	-0.040530827
4	0xbe9b5ca5	-0.3034412
5	0x3e6909af	0.227576
6	0xbec05c7e	-0.37570566
7	0x3dd5158a	0.10404499
8	0x3dbd5054	0.09243837
9	0x3cd34ecd	0.025794411
10	0x3e69fb9c	0.22849888
11	0xbe8c7d62	-0.2743941
12	0xbe735fa7	-0.23766957
13	0xbf9ccacb	-1.2249388
14	0xbf9de2fb	-1.2334894
15	0x3e01c54a	0.12672916
16	0x3cd44d9e	0.025915917
17	0x3dbe97a1	0.09306265
18	0x3da5cd62	0.08095814
19	0xbefe922f	-0.49720904
20	0xbf865f67	-1.0497864
21	0xbf1f2f03	-0.6218111
22	0xbd7a8233	-0.061159324
23	0x3e447b7e	0.19187734
24	0x3e8d8d85	0.27647033
25	0xbc572262	-0.013130756
26	0x3cbfa788	0.023395315
27	0x3e3ac4f9	0.18239202
28	0xbf3d56f2	-0.73960793
29	0xbdc5d806	-0.09660344
30	0x3e10d0e5	0.14142187
31	0xbadf6052	-0.0017042255
32	0xbdee2452	-0.11628021
33	0x3e7a674e	0.2445347
34	0x3d9c8939	0.07643361
35	0x3ecd154a	0.40055305
36	0x3e3aacf0	0.18230033
37	0xbd9eb385	-0.077490844
38	0x3e9041b2	0.28175122
39	0x3c0e9535	0.008702566
40	0x3cb9b046	0.022667062
41	0x3ecdf2fe	0.4022445
42	0xbee940d8	-0.45557284
43	0xbf110b24	-0.56657624
44	0xbe80390b	-0.2504352
45	0xbe0c0603	-0.13674168
46	0xbd8d8dda	-0.06911822
47	0x3eab7e2d	0.33494702
48	0xbd9bbe7e	-0.07604693
49	0xbd72154b	-0.059102338
50	0x3ed3582c	0.41278207
51	0x3e83a73e	0.25713533
52	0xbe72787b	-0.23678772
53	0x3d918546	0.07105498
54	0xbd5d894b	-0.05408601
55	0x3ef4c970	0.47809935
56	0x3d46d9df	0.04854762
57	0x3ed57091	0.41687444
58	0x3e87d485	0.26529327
59	0x3ef6e637	0.48222515
60	0xbda76867	-0.0817421
61	0x3e66c3c5	0.22535618
62	0xbf059e28	-0.5219445
63	0x3e1a6cdd	0.1508059
64	0x3f40b0d2	0.75269806
65	0x3e9e02c2	0.3086148
66	0x3eb369f5	0.35041776
67	0x3e5fe00c	0.21862811
68	0x3ec06b3e	0.3758182
69	0x3e640f03	0.22271352
70	0x3ece95dd	0.40348712
71	0x3c3296db	0.010900225
72	0x3f171193	0.5901119
73	0x3ea88e4a	0.32921058
74	0x3eed150a	0.46305114
75	0x3e543815	0.20724519
76	0x3f54728c	0.82987285
77	0x3ebb71a1	0.3661013
78	0x3ef1de02	0.4723969
79	0x3f0f5d50	0.5600176
80	0x3f2c65ed	0.67343026
81	0x3f962a9c	1.1731753
82	0x3e9175cf	0.28410193
83	0xbda3a1a4	-0.07989815
84	0x3eb4ebc3	0.35336122
85	0x3f39892e	0.72474945
86	0x3ecc1611	0.39860585
87	0xbd15e9ff	-0.03660011
88	0x3e6981e1	0.22803451
89	0x3ead2a60	0.33821392
90	0x3e29d1c2	0.16583923
91	0x3f9067e5	1.1281706
92	0x3ee59d86	0.44846743
93	0x3ef7e23c	0.4841479
94	0x3ed93450	0.42422724
95	0xbf157c68	-0.58392954
96	0xbe16f8fc	-0.14743418
97	0xbe3321a8	-0.17493308
98	0x3e2dba4e	0.16965601
99	0xbe506f50	-0.20354962
100	0xbda458a9	-0.08024723
101	0xbe0e3448	-0.13887131
102	0x3f20e0d4	0.6284306
103	0xbe6da2b7	-0.23206602
104	0xbeaa7220	-0.33290195
105	0xbda3fcd4	-0.080072075
106	0xbeab53ed	-0.33462468
107	0xbe92a1e8	-0.2863915
108	0xbe34cce1	-0.1765628
109	0xbee887f5	-0.45416227
110	0x3e9ec6ef	0.3101115
111	0x3db0b2b8	0.08627838
112	0xbec3db67	-0.38253328
113	0x3f1299d2	0.5726596
114	0x3d87c939	0.06630177
115	0xbf276e40	-0.65402603
116	0xbe9a77b3	-0.30169448
117	0x3f358bf4	0.70916677
118	0x3e06364a	0.13106647
119	0xbcaea7e4	-0.02132029
120	0xbe54b67b	-0.20772736
121	0x3d65d553	0.056111645
122	0x3d5c4a84	0.053782
123	0xbd6e131d	-0.058123697
124	0x3db76f7c	0.08956811
125	0x3cec41a8	0.028839901
126	0x3ee3bd1a	0.4448021
127	0xbf8e0d6e	-1.1097848
128	0xbf22cd90	-0.63594913
129	0x3e095c01	0.13414003
130	0xbdd57b0e	-0.104238614
131	0x3ee51cbf	0.44748494
132	0x3e267eb8	0.16259277
133	0xbf18e6b2	-0.59727013
134	0x3ea8bd9b	0.32957157
135	0x3a5a6ade	0.00083319645
136	0xbc212d85	-0.009837513
137	0xbf10c293	-0.56546897
138	0xbf5d579b	-0.864618
139	0xbddb5b35	-0.10710756
140	0x3e0b7245	0.13617809
141	0xbea755f3	-0.32682762
142	0x3e480443	0.19532876
143	0xbee8321b	-0.45350727
144	0xbec389c3	-0.3819104
145	0xbbad9731	-0.0052975644
146	0xbecec02f	-0.40381
147	0x3e64a0f9	0.22327031
148	0xbd8cdfeb	-0.068786465
149	0xbe82b84e	-0.25531238
150	0x3e5dc9da	0.21659032
151	0xbeaaca55	-0.33357492
152	0x3ec6a5f5	0.3879849
153	0xbd80f2cb	-0.06296309
154	0xbea407cc	-0.320372
155	0xbe36281e	-0.17788741
156	0x3d0abf11	0.03387362
157	0x3e1a4cce	0.15068361
158	0x3e4071ce	0.18793413
159	0xbe2e9e3f	-0.17052554
160	0xbd90892a	-0.07057412
161	0x3e4e08db	0.20120566
162	0x3e5e74af	0.21724199
163	0x3f64e5fa	0.89413416
164	0x3e3e3c95	0.18577798
165	0x3e05ef18	0.13079488
166	0x3e0ff358	0.14057672
167	0x3fa457fc	1.2839351
168	0x3f12a332	0.57280266
169	0x3e3bf405	0.18354805
170	0x3da2d7ad	0.07951293
171	0x3ef3c74e	0.47612995
172	0x3f858b80	1.0433197
173	0x3ebeb9a3	0.37251005
174	0x3e3345a4	0.17507035
175	0x3f10f726	0.5662712
176	0x3e6d976f	0.23202299
177	0x3e6c26fd	0.23061748
178	0x3f1e6963	0.6187956
179	0x3d0ddf8b	0.034637015
180	0x3cccd060	0.025001705
181	0x3efa23b0	0.48855352
182	0x3f757258	0.958776
183	0x3edd6376	0.43239945
184	0xbe0587f9	-0.1304015
185	0xbe1bda17	-0.15219913
186	0x3f3412e9	0.70341355
187	0x3e276304	0.16346365
188	0x3f4e2940	0.8053169
189	0x3f0f5b8b	0.5599906
190	0x3f10fbc2	0.5663415
191	0xbe959bc0	-0.2922039
192	0xbe374ae9	-0.1789967
193	0xbe2ca11d	-0.16858335
194	0xbe3bd2fd	-0.18342204
195	0xbeae59f2	-0.34052998
196	0x3f055f9b	0.5209901
197	0xbe920bba	-0.28524572
198	0x3e100823	0.14065604
199	0x3e58962a	0.21151033
200	0x3e133b99	0.14378203
201	0xbe6eba24	-0.23313195
202	0xbe8ce22c	-0.27516305
203	0xbd511c72	-0.05105252
204	0x3d89395d	0.06700394
205	0xbf130157	-0.5742392
206	0xbf545e04	-0.82955956
207	0xbf1c5389	-0.61064965
208	0xbeb63872	-0.3558994
209	0xbeb996fc	-0.36248004
210	0xbe6b14f6	-0.22957215
211	0xbf1431e3	-0.5788862
212	0x3ed0cac2	0.40779692
213	0x3c8008d3	0.015629208
214	0x3e658dfc	0.22417444
215	0x3e09ffcc	0.13476485
216	0x3e9348b4	0.28766406
217	0x3e032f85	0.12811096
218	0xbe875b7c	-0.26436985
219	0x3e94b10d	0.2904133
220	0x3e920451	0.28518918
221	0x3d9b7cc1	0.07592154
222	0x3e279a97	0.16367565
223	0x3e894056	0.26806897
224	0x3d894a9c	0.06703684
225	0x3e313aa9	0.17307533
226	0x3eba85c9	0.36430195
227	0x3ebde02c	0.37085092
228	0x3ef44237	0.47706768
229	0x3e72d78b	0.23715036
230	0x3e94c8df	0.29059502
231	0xbe05bfef	-0.13061498
232	0xbe968691	-0.2939954
233	0xbed514da	-0.4161747
234	0xbe24120a	-0.16022506
235	0xbf0d075b	-0.5508935
236	0xbf1b47d2	-0.60656464
237	0xbed0045e	-0.40628332
238	0xbf015506	-0.5052036
239	0xbe84260e	-0.25810283
240	0xbdc4cb28	-0.096090615
241	0x3e33dfb9	0.17565812
242	0xbf167b89	-0.5878225
243	0x3d32c780	0.04364729
244	0xbe39c187	-0.18140231
245	0xbea87880	-0.32904434
246	0xbc078c71	-0.00827323
247	0xbe4c6ba1	-0.19962932
248	0x3f086953	0.5328571
249	0x3e3014f2	0.1719549
250	0xbe97e8e6	-0.29669875
251	0xbed95420	-0.42446995
252	0xbed6fa71	-0.41987947
253	0x3d07eadb	0.03318296
254	0x3eb40bfb	0.3516539
255	0xbd19d003	-0.03755189

network.0.bias f4 [256]
0	0xbe84fe16	-0.25975102
1	0xbe74ff3b	-0.23925488
2	0xbf027ddc	-0.50973296
3	0xbf1686cd	-0.5879944
4	0xbe18fa3c	-0.14939207
5	0xbed314cf	-0.41226813
6	0xbe473d04	-0.1945687
7	0xbe9febd4	-0.3123461
8	0xbe8f7b10	-0.28023577
9	0xbea7ee41	-0.3279896
10	0x3d8c523d	0.06851623
11	0xbe9e6967	-0.3093979
12	0x3e46aa5d	0.19400926
13	0xbefe5f13	-0.4968191
14	0xbee04319	-0.4380119
15	0xbedb3b5d	-0.42818728
16	0xbe7c5155	-0.246404
17	0xbea55d5f	-0.322978
18	0xbf142f7b	-0.5788495
19	0xbdfa3d46	-0.12218718
20	0xbec6303b	-0.38708672
21	0xbe6c938a	-0.23103157
22	0xbec102e3	-0.37697515
23	0xbe79b412	-0.24385098
24	0x3d3ff82d	0.04686754
25	0xbf3da4e0	-0.74079704
26	0xbd782dad	-0.060590435
27	0xbeae673d	-0.3406314
28	0xbe3b0b72	-0.18266085
29	0xbea2cea9	-0.31798294
30	0xbefd25ff	-0.4944305
31	0xbcd83628	-0.026393011
32	0xbea67e80	-0.32518387
33	0xbe222859	-0.15835704
34	0xbbbfe2f6	-0.0058559133
35	0xbeee4114	-0.46534026
36	0xbf00993a	-0.50233805
37	0xbf3fef11	-0.7497416
38	0xbde5864e	-0.11207257
39	0xbec56f87	-0.3856165
40	0xbeb50459	-0.3535488
41	0xbf69290a	-0.91078246
42	0xbef08905	-0.46979538
43	0xbf1dcc1d	-0.6163958
44	0xbf013afd	-0.50480634
45	0xbecda687	-0.40166113
46	0x3e88a94a	0.26691657
47	0xbf6716d6	-0.9026922
48	0xbe857592	-0.26066262
49	0xbe7384f3	-0.23781185
50	0x3abe415e	0.001451533
51	0x3d8e3b84	0.069449455
52	0x3e274eb4	0.16338617
53	0xbd652046	-0.05593898
54	0xbebc6e45	-0.3680288
55	0xbe6421ce	-0.2227852
56	0xbefda5df	-0.49540612
57	0xbe28176e	-0.16415188
58	0xbe731472	-0.23738268
59	0x3da3862d	0.079845764
60	0xbed00f50	-0.40636683
61	0xbed1ae9e	-0.40953535
62	0xbe1b798f	-0.1518309
63	0xbfbd6c26	-1.4798629
64	0xbe7e3a3b	-0.248269
65	0xbdbf60a9	-0.09344608
66	0xbd648526	-0.055791043
67	0xbeecd0c4	-0.46253026
68	0xbebef637	-0.37297222
69	0xbf23a756	-0.6392721
70	0xbe11376e	-0.14181301
71	0xbf5dfd3c	-0.8671453
72	0xbf4dc8a2	-0.80384266
73	0xbf317a07	-0.69326824
74	0xbed01127	-0.40638086
75	0xbf5c9571	-0.8616553
76	0xbedb1eec	-0.4279703
77	0x3e1103b4	0.14161569
78	0xbe387e4b	-0.18016927
79	0xbee4d38c	-0.44692647
80	0xbeb62deb	-0.35581908
81	0xbe072e92	-0.13201359
82	0xbee7898f	-0.45222136
83	0xbe1167e2	-0.14199784
84	0xbeaf004c	-0.34179914
85	0xbef8fb88	-0.48629403
86	0xbe9858c8	-0.29755235
87	0xbe0e3180	-0.1388607
88	0xbe080cc1	-0.13286115
89	0xbea9937c	-0.33120334
90	0xbe041610	-0.12899041
91	0xbe7b7a96	-0.24558482
92	0xbf9752cf	-1.1822146
93	0xbf95a564	-1.1691098
94	0xbe963e90	-0.29344606
95	0xbdf4cfc8	-0.11953694
96	0xbf67abb9	-0.904964
97	0xbf0a3c57	-0.5399832
98	0xbe354acd	-0.17704315
99	0xbf7bbe93	-0.9833767
100	0xbe846aa4	-0.2586261
101	0xbf41d60f	-0.7571725
102	0xbd8a09cd	-0.067401506
103	0xbf45ede2	-0.77316105
104	0xbe8a44ca	-0.27005607
105	0xbdb25648	-0.08707863
106	0xbf1507e4	-0.58215165
107	0xbf26b689	-0.65122277
108	0xbf720125	-0.94532996
109	0xbd82dec1	-0.06390143
110	0xbf3ff3e0	-0.749815
111	0x3e0f8363	0.14014964
112	0xbe5a0a3b	-0.21292965
113	0xbf0239ed	-0.5086964
114	0xbf1d7058	-0.6149955
115	0xbe8570dc	-0.26062667
116	0xbf0c0d8b	-0.54708165
117	0xbd232f5a	-0.03984008
118	0xbf202bda	-0.6256691
119	0xbed7633a	-0.4206789
120	0xbe146e45	-0.1449519
121	0x3d9dae5e	0.076992735
122	0xbed7fafc	-0.42183673
123	0xbecfcc96	-0.40585774
124	0xbed35432	-0.41275173
125	0xbf8effd1	-1.1171819
126	0xbe8d8dae	-0.27647156
127	0xbd80bc13	-0.06285872
128	0xbf13617c	-0.57570624
129	0xbf81857f	-1.0118865
130	0xbeb06641	-0.34453014
131	0xbed29db1	-0.41135934
132	0xbd767087	-0.06016591
133	0xbf04ae8e	-0.5182885
134	0xbe7671f9	-0.24066915
135	0x3e34484c	0.17605704
136	0xbf77aa34	-0.96744084
137	0xbde5fa76	-0.11229412
138	0xbefcd989	-0.49384716
139	0xbd8239ed	-0.06358705
140	0xbf64ff3e	-0.8945197
141	0x3eb383bd	0.35061446
142	0xbf394f65	-0.7238677
143	0x3db2b941	0.08726741
144	0xbecc38de	-0.39887136
145	0xbe952f4d	-0.2913765
146	0xbecfb1a5	-0.4056522
147	0xbe1797a6	-0.14803943
148	0xbeaf9287	-0.3429148
149	0x3e8b613a	0.27222615
150	0xbed7eff4	-0.42175257
151	0xbe9f533f	-0.311182
152	0xbebbe829	-0.36700562
153	0xbf29fe53	-0.6640369
154	0xbeaf4e5f	-0.3423948
155	0xbcee9458	-0.02912347
156	0xbe90bbe9	-0.28268364
157	0xbf57ce28	-0.84298944
158	0xbe86f4f7	-0.26358768
159	0xbf815d57	-1.010661
160	0xbe8efb50	-0.2792611
161	0xbeae09a8	-0.33991742
162	0xbe270904	-0.16312033
163	0x3d98cd9d	0.074610926
164	0x3db09689	0.08622462
165	0x3ece1b4b	0.40255198
166	0xbf872d40	-1.0560684
167	0x3ea88302	0.3291245
168	0xbedddac5	-0.4333097
169	0xbed0c6f4	-0.4077679
170	0xbea74477	-0.32669422
171	0xbe64bfb6	-0.22338757
172	0x3e133e60	0.14379263
173	0xbdbf91b6	-0.09353964
174	0xbb041080	-0.0020151436
175	0xbea41bf5	-0.3205258
176	0xbed682b6	-0.418966
177	0x3e0100a9	0.12597908
178	0x3e2ea0f4	0.17053586
179	0xbe6c129e	-0.23053977
180	0xbf159ca7	-0.5844216
181	0xbf867ffb	-1.0507807
182	0xbea7bbba	-0.32760412
183	0xbe9f61c6	-0.31129283
184	0xbe7fe409	-0.24989332
185	0xbf2e96cf	-0.68198866
186	0xbe98c002	-0.2983399
187	0xbd6c0be0	-0.057628512
188	0xbf6df517	-0.929521
189	0xbe360588	-0.17775548
190	0xbf1f9f83	-0.6235277
191	0x3eb99033	0.36242828
192	0x3d6a0b99	0.057139967
193	0xbf1ff7f2	-0.6248771
194	0xbf414fc3	-0.7551233
195	0xbd0851ac	-0.033281013
196	0xbea27eaa	-0.31737262
197	0xbf0f0bbb	-0.55877274
198	0xbc4b9571	-0.012425766
199	0xbf756b26	-0.9586662
200	0x3e781c81	0.24229623
201	0xbe95d89f	-0.2926683
202	0xbeac6812	-0.3367315
203	0xbec5a85b	-0.38605008
204	0xbde26839	-0.11055035
205	0x3de8f3bc	0.11374614
206	0xbf8da73c	-1.1066661
207	0xbe698fc2	-0.22808746
208	0xbf9a333e	-1.2046888
209	0xbf47f1ab	-0.7810313
210	0xbe179faf	-0.14807008
211	0xbee1864a	-0.44047767
212	0xbf1bf63a	-0.60922587
213	0xbe03193e	-0.12802598
214	0xbf370dec	-0.7150562
215	0xbe909a1b	-0.28242573
216	0xbe8e96b9	-0.27849367
217	0xbe988955	-0.29792276
218	0x3e626047	0.2210704
219	0xbe145ed5	-0.144893
220	0xbeba7821	-0.36419776
221	0xbece969d	-0.40349284
222	0xbed7d3fc	-0.4215392
223	0xbf05acda	-0.52216876
224	0xbe8382d1	-0.25685742
225	0xbed45eaf	-0.41478488
226	0xbe59113d	-0.21197982
227	0xbed03a7d	-0.40669623
228	0x3b84c8f9	0.004052278
229	0xbe4ace34	-0.19805223
230	0xbe9b63d6	-0.30349606
231	0xbfa0c44f	-1.2559909
232	0xbef8f602	-0.4862519
233	0xbd5ab291	-0.05339295
234	0xbf8c8445	-1.0977865
235	0xbf3c102c	-0.73462176
236	0xbf8c0297	-1.093829
237	0xbe7ff31a	-0.2499508
238	0xbf0cf968	-0.55068064
239	0xbec1a319	-0.37819746
240	0xbe8ca339	-0.2746828
241	0xbdfc6591	-0.1232406
242	0xbd27f9f8	-0.041009873
243	0xbf8a74db	-1.0816911
244	0xbdce1f23	-0.100645326
245	0xbe769406	-0.24079904
246	0xbdcc98b1	-0.09990061
247	0xbcd02819	-0.025409745
248	0xbf83e941	-1.0305558
249	0xbe398a02	-0.18119052
250	0xbee8b745	-0.45452324
251	0xbda3620c	-0.07977685
252	0xbedb8908	-0.42877984
253	0x3e278362	0.16358712
254	0xbefe49e2	-0.49665743
255	0xbf11a827	-0.56897205

network.3.weight f4 [128, 256]
0	0xbefa69fa	-0.4890898
1	0x3e427c90	0.1899283
2	0xbe8c7b03	-0.274376
3	0x3e56cea3	0.20977263
4	0x3e3cd356	0.18439993
5	0xbd06654b	-0.032811444
6	0x3f2ab07b	0.6667554
7	0xbe1dcf7d	-0.15411182
8	0x3f0db117	0.5534834
9	0xbd1a556f	-0.037679132
10	0x3e271b56	0.16319022
11	0x3ea8557e	0.32877725
12	0x3dbe2300	0.092840195
13	0xbdcd1dea	-0.10015471
14	0x3f34f639	0.70688206
15	0x3c0300f4	0.007995833
16	0xbcb52c53	-0.022115862
17	0xbd8491c8	-0.06473118
18	0xbea8fd4b	-0.33005747
19	0xbcff787d	-0.031185383
20	0x3e849ad1	0.25899366
21	0xbb88c99d	-0.004174425
22	0x3f2ce052	0.67529786
23	0xbdca8900	-0.09889412
24	0x3e9c15c7	0.30485365
25	0xbe92f97d	-0.2870597
26	0x3eba1de9	0.36350945
27	0x3e78579c	0.2425217
28	0x3ebc5a23	0.3678752
29	0xbdde2296	-0.108464405
30	0x3e858dc8	0.26084733
31	0x3e12f9b0	0.1435306
32	0x3f0e008f	0.554696
33	0xbc3f2a0b	-0.011667739
34	0xbdfa7ff4	-0.12231436
35	0xbdb38c9f	-0.08767056
36	0xbe8d13d4	-0.2755419
37	0x3e2a1247	0.16608535
38	0x3edcbba0	0.43111897
39	0x3d7eadac	0.062177345
40	0x3f33891b	0.7013108
41	0xbe5b043c	-0.21388334
42	0x3ec7418e	0.38917202
43	0x3df1e063	0.118103765
44	0xbefd89c7	-0.49519178
45	0x3ea29e52	0.31761414
46	0x3e0e39b3	0.13889198
47	0xbd8569f3	-0.06514349
48	0xbe834222	-0.25636393
49	0x3e0f3e35	0.13988574
50	0x3ed25c3a	0.41085988
51	0x3e0b2a6e	0.13590404
52	0x3e07ae52	0.13250092
53	0xbdbd96c9	-0.092572756
54	0xbe7568a4	-0.23965698
55	0xbe8f08d4	-0.27936423
56	0x3e7fbf19	0.24975242
57	0x3f2a0d8c	0.6642692
58	0xbe12f7be	-0.14352319
59	0x3dcb8d69	0.09939081
60	0x3e3da8a2	0.1852136
61	0xbeab9bb9	-0.33517244
62	0xbd85729b	-0.06516
63	0x3e9c57dd	0.30535784
64	0x3eed6bdb	0.4637135
65	0xbe7afe00	-0.24510956
66	0x3e0b53e4	0.1360622
67	0x3e081f98	0.13293302
68	0xbccd17af	-0.025035707
69	0x3e82594e	0.2545876
70	0x3d60143c	0.054706797
71	0xbe3903f9	-0.18067922
72	0xbe9de43c	-0.30838192
73	0xbc8943d2	-0.016755972
74	0x3e50c2f6	0.20386872
75	0x3e3daea4	0.18523651
76	0x3e737508	0.23775113
77	0xbec04645	-0.3755361
78	0x3e3cb0e7	0.18426858
79	0x3ea1e8bc	0.31622875
80	0x3ed65b5d	0.4186658
81	0x3e72c42c	0.23707646
82	0x3e6be7a7	0.23037587
83	0x3ed0986b	0.40741286
84	0x3dca115b	0.098665915
85	0xbe6ead1a	-0.2330822
86	0x3e311c3f	0.17295931
87	0x3eef2fc4	0.4671613
88	0x3e93d164	0.2887069
89	0xbcc44e4d	-0.023963118
90	0xbdb22db8	-0.087001264
91	0xbde78a72	-0.11305703
92	0xbe6fee70	-0.234308
93	0x3e64b00c	0.22332782
94	0x3ebe74e6	0.3719856
95	0x3f30584d	0.68884736
96	0xbeb450b1	-0.35217813
97	0xbe8b8df4	-0.2725674
98	0x3df386a3	0.11890914
99	0xbed0286d	-0.40655842
100	0xbeed2136	-0.463144
101	0x3e279b86	0.16367921
102	0x3f7c14cb	0.9846923
103	0x3e865b0a	0.26241332
104	0xbe3bd17c	-0.1834163
105	0xbe8a20db	-0.26978192
106	0x3b82ee9b	0.003995729
107	0xbd1753f4	-0.0369453
108	0xbe7ed06d	-0.24884196
109	0x3ea538cd	0.32269898
110	0xbccc0b62	-0.024907771
111	0x3e8856ed	0.2662882
112	0x3de7c7ae	0.11317383
113	0xbeb893fc	-0.36050403
114	0xbd27086d	-0.04077952
115	0x3da0c8ef	0.07850825
116	0xbe52512d	-0.20538779
117	0x3e135424	0.14387566
118	0x3ef3a7a2	0.4758883
119	0xbe58a44a	-0.21156421
120	0x3e289d5e	0.16466281
121	0xbeb5b44d	-0.3548912
122	0xbbcc369e	-0.006232097
123	0x3de39c4f	0.11113798
124	0xbca4745d	-0.020075018
125	0x3d341193	0.043962073
126	0x3dc347cc	0.095351785
127	0x3ee47c68	0.44626164
128	0xbe0f20d4	-0.13977367
129	0xbdda78c7	-0.10667568
130	0xbe88e053	-0.26733646
131	0xbe6a759f	-0.22896431
132	0xbea11464	-0.3146087
133	0x3e2beb87	0.16789065
134	0xbf16794b	-0.5877883
135	0x3ec9983a	0.39373952
136	0x3ef99d96	0.4875304
137	0x3dcbbe71	0.09948433
138	0xbead825f	-0.33888528
139	0x3cdeaba8	0.027181461
140	0xbe49e9fe	-0.19718167
141	0x3f098a8f	0.5372705
142	0xbbc5180c	-0.0060148295
143	0xbd86267a	-0.065503076
144	0xbe889d05	-0.26682296
145	0x3d4510e6	0.04811182
146	0x3ed03b69	0.40670326
147	0x3ef5429d	0.47902384
148	0x3f04ae77	0.5182871
149	0x3e730ac2	0.23734573
150	0x3d9e8b9a	0.07741471
151	0x3ebf0028	0.37304807
152	0x3f2ac534	0.6670716
153	0xbcc06967	-0.02348776
154	0x3dea77c8	0.11448628
155	0xbe496314	-0.19666702
156	0xbe6abfa9	-0.22924675
157	0xbddfa00c	-0.109191984
158	0x3f0572b5	0.52128154
159	0xbe4a5003	-0.19757085
160	0x3e6858b4	0.22690088
161	0xbed53091	-0.41638616
162	0x3e26dee5	0.16295965
163	0x3e30987a	0.17245665
164	0x3ef81163	0.48450765
165	0xbe520747	-0.20510589
166	0xbd4ee146	-0.050507806
167	0xbe89fb54	-0.2694956
168	0x3dcbbd63	0.09948232
169	0x3de7a852	0.113114014
170	0x3d2261c3	0.039644014
171	0xbc21ef90	-0.009883776
172	0xbed1e8c0	-0.40997887
173	0x3e9183df	0.28420922
174	0x3e2fa22d	0.17151709
175	0xbe35d9c2	-0.1775885
176	0xbe97170b	-0.29509768
177	0x3ee8aba8	0.45443463
178	0x3d9ce337	0.07660525
179	0x3d943b67	0.072378926
180	0xbe245ad6	-0.16050276
181	0xbec75bc1	-0.3893719
182	0xbea4b8c4	-0.32172215
183	0xbe3f84d3	-0.18703012
184	0xbd99e8ec	-0.075151294
185	0x3e04cc98	0.12968671
186	0x3e0a3c04	0.13499457
187	0x3dd11b70	0.102103114
188	0xbed7cc5a	-0.42148095
189	0xbdac7845	-0.08421377
190	0x3f241bd8	0.64104986
191	0x3f131b6a	0.57463706
192	0x3f6ff95e	0.9373988
193	0xbe93c1e7	-0.28858873
194	0xbecc0c9c	-0.3985337
195	0x3f0fb22a	0.5613123
196	0x3e521121	0.20514347
197	0x3e401e0b	0.1876146
198	0x3f0e760b	0.5564887
199	0xbeb737cd	-0.3578476
200	0xbcf9fadd	-0.030515129
201	0xbdc8a532	-0.097971335
202	0x3d9c5a82	0.076344505
203	0x3c434475	0.011918177
204	0x3ea5fb1e	0.3241815
205	0x3eb9ba73	0.36275062
206	0x3d7a6616	0.061132513
207	0x3e8d7eae	0.2763571
208	0xbc5ac597	-0.013352773
209	0x3d91c982	0.07118513
210	0x3de453b2	0.11148776
211	0xbe954e67	-0.2916138
212	0xbead924c	-0.33900678
213	0xbea8e613	-0.32988033
214	0xbe9e9ff8	-0.3098142
215	0x3ea6aea3	0.32555112
216	0xbe72b50a	-0.23701873
217	0xbea04e3e	-0.31309694
218	0x3e53bef7	0.20678316
219	0xbd7b67cd	-0.06137829
220	0x3e19903a	0.14996424
221	0xbdc31e06	-0.09527211
222	0x3eaeb377	0.34121296
223	0x3e8171cf	0.25282142
224	0x3e81de37	0.2536485
225	0xbf2ee459	-0.6831718
226	0x3ef815ac	0.48454034
227	0x3e45fc03	0.19334416
228	0xbe027517	-0.12739979
229	0x3d9865af	0.074412696
230	0xbd82e406	-0.06391148
231	0xbd82c085	-0.063843764
232	0x3f1d63b7	0.6148028
233	0xbeb47252	-0.3524347
234	0xbe6368ea	-0.2220799
235	0xbe72760f	-0.23677848
236	0xbdd86b96	-0.105673954
237	0xbd985242	-0.074375644
238	0x3da57d0c	0.080804914
239	0x3ea0e900	0.31427765
240	0x3eebaa21	0.46028236
241	0xbd5b8759	-0.053595874
242	0x3e2875ca	0.16451183
243	0xbeb9889f	-0.36237046
244	0x3e124aac	0.14286298
245	0x3e2a34cc	0.16621703
246	0x3e52d9b5	0.20590861
247	0x3ee8ac94	0.45444167
248	0xbee171ed	-0.4403223
249	0xbe58c180	-0.21167564
250	0xbbb732ab	-0.005590757
251	0x3eafe130	0.34351492
252	0xbe557e31	-0.2084892
253	0x3f0e8e54	0.55685925
254	0x3e6a2171	0.2286432
255	0x3ec8b79b	0.3920258

network.3.bias f4 [128]
0	0xbeb452aa	-0.35219318
1	0x3ded0d4c	0.11574802
2	0xbe7bc277	-0.24585901
3	0xbf0b0703	-0.54307574
4	0x3d919668	0.07108766
5	0xbe536acc	-0.20646209
6	0xbefa59c5	-0.48896614
7	0x3db5eb3d	0.08882759
8	0xbe18db2f	-0.14927362
9	0xbf1dac1e	-0.61590755
10	0x3ef2d3ac	0.47427118
11	0xbf559d62	-0.8344327
12	0xbef1a871	-0.47198823
13	0xbe1ac016	-0.15112337
14	0xbe907064	-0.28210747
15	0xbdfb7d08	-0.12279707
16	0xbf4cf1a9	-0.80056244
17	0x3f0939a8	0.536036
18	0xbf009f7e	-0.50243366
19	0x3ebefaed	0.37300816
20	0x3e57a51c	0.21059078
21	0xbeafbff8	-0.34326148
22	0xbe3034ff	-0.17207716
23	0x3d2abd1f	0.041684266
24	0xbf442d55	-0.7663167
25	0xbeefb9c3	-0.46821412
26	0xbf185fe2	-0.59521306
27	0xbef2d8a5	-0.47430912
28	0x3f0251b1	0.509059
29	0xbf38789c	-0.72059035
30	0xbe300e2d	-0.17192908
31	0xbf8c3163	-1.0952572
32	0xbf4b5e02	-0.7944032
33	0xbdf783a3	-0.120856546
34	0x3f256497	0.6460661
35	0xbeacbfce	-0.33740085
36	0xbf3863a7	-0.7202706
37	0x3efc2508	0.49247003
38	0xbe8adc05	-0.27120987
39	0xbd8de149	-0.06927735
40	0xbf0ca848	-0.54944277
41	0xbf603b2b	-0.87590283
42	0xbeadfa4d	-0.33980027
43	0xbb187f6f	-0.0023269316
44	0xbe84e46e	-0.25955528
45	0xbf7a14e7	-0.97688144
46	0xbecd6703	-0.40117654
47	0x3dd37f8a	0.103270605
48	0x3c18b386	0.0093201455
49	0xbdd5a1ab	-0.10431226
50	0x3e5ff0b9	0.21869172
51	0xbe3f81c5	-0.18701847
52	0xbf390526	-0.7227348
53	0xbe574381	-0.21021844
54	0xbd9479ab	-0.07249769
55	0xbdecf131	-0.11569441
56	0xbc2393ca	-0.009983966
57	0xbf5ba0bb	-0.8579213
58	0xbeb56819	-0.35430983
59	0x3e784684	0.2424565
60	0xbeda6253	-0.4265314
61	0xbf074519	-0.5283981
62	0xbf7ec352	-0.99516785
63	0xbee88729	-0.4541562
64	0xbf0bb736	-0.5457643
65	0xbf77144b	-0.9651534
66	0xbf068f28	-0.5256219
67	0xbf3e4e41	-0.74338156
68	0xbae03620	-0.0017105974
69	0xbf62db53	-0.8861591
70	0xbee9f8e9	-0.45697716
71	0xbf5816ac	-0.84409595
72	0xbf824b91	-1.0179311
73	0xbd3a36b7	-0.045462336
74	0xbf09cb6b	-0.53826016
75	0x3d04ab13	0.03238971
76	0x3ee722fe	0.45143884
77	0xbf03abc4	-0.5143397
78	0xbe195d49	-0.14976992
79	0xbee5a5c8	-0.44853044
80	0x3e04f5a1	0.12984325
81	0x3e8ec80f	0.27887008
82	0xbfa101cb	-1.2578672
83	0x3eec3f88	0.4614222
84	0xbe8fb014	-0.28064024
85	0xbe44dd0a	-0.19224945
86	0xbf479ffa	-0.7797848
87	0x3f3c4c60	0.7355404
88	0x3e103455	0.14082463
89	0xbf0c4dcb	-0.548062
90	0xbe079072	-0.13238695
91	0x3efd8e20	0.49522495
92	0xbf7e9c85	-0.9945758
93	0x3e2aafa2	0.16668561
94	0xbf025d3c	-0.50923514
95	0xbf8190f3	-1.012236
96	0x3dded7d4	0.1088101
97	0xbea3a6fa	-0.3196333
98	0xbef4424f	-0.4770684
99	0xbf41e44e	-0.7573899
100	0x3e705808	0.23471081
101	0xbd850e92	-0.0649692
102	0xbf50dfb8	-0.8159137
103	0xbe5c5658	-0.21517313
104	0x3cd9988c	0.026561998
105	0x3bd870cb	0.006605243
106	0xbf640947	-0.89076656
107	0xbeda6da2	-0.42661768
108	0xbf83741c	-1.0269809
109	0xbfa0b58e	-1.2555406
110	0xbf52ffa0	-0.824213
111	0xbe1654b6	-0.14680752
112	0x3f1c49d0	0.6105013
113	0xbf5a60a8	-0.85303736
114	0xbf7ea6c7	-0.9947323
115	0xbf0ec286	-0.5576557
116	0xbf2b6e6f	-0.66965383
117	0xbf11e6ab	-0.56992596
118	0xbf068c5e	-0.52557933
119	0xbf270f0d	-0.6525734
120	0xbf014984	-0.505028
121	0xbf432e8e	-0.7624291
122	0xbf5af403	-0.8552858
123	0xbee74cdd	-0.4517583
124	0xbf787b2d	-0.9706295
125	0x3da818cf	0.08207857
126	0xbf472fc4	-0.7780726
127	0xbea7a19f	-0.32740495

network.6.weight f4 [64, 128]
0	0xbedbbb9d	-0.42916575
1	0xbe7056e2	-0.23470643
2	0xbb8f896b	-0.004380395
3	0xbd7a02f8	-0.061037987
4	0xbe56a344	-0.20960718
5	0xbdae477e	-0.0850973
6	0xbe8073ed	-0.25088444
7	0x3e032771	0.12808014
8	0x3c2e4d24	0.010638509
9	0xbdf79412	-0.12088789
10	0xbe11937e	-0.1421642
11	0xbe80a2f6	-0.2512433
12	0xbe99c56e	-0.3003344
13	0xbdb4277b	-0.08796593
14	0xbe6ca989	-0.23111548
15	0x3d170e36	0.036878787
16	0x3d8c4a90	0.06850159
17	0xbc2b9d94	-0.010474581
18	0xbe37eb92	-0.17960957
19	0xbea87e82	-0.32909018
20	0x3d8973c2	0.06711532
21	0xbe314a1c	-0.17313427
22	0xbe1ed99c	-0.15512699
23	0x3d680ac9	0.05665091
24	0xbd5c13d6	-0.053729855
25	0xbe3b4648	-0.18288529
26	0xbe51cbb0	-0.20487857
27	0x3b6ca738	0.0036110412
28	0xbd273d72	-0.040830083
29	0xbd532bc4	-0.05155541
30	0x3cecb8a9	0.028896647
31	0xbe9e82b3	-0.3095909
32	0xbe6de1bc	-0.23230642
33	0x3bce0a65	0.00628786
34	0xbd093860	-0.03350103
35	0x3c91674d	0.017749453
36	0xbe08251c	-0.13295406
37	0xbdf74d64	-0.12075308
38	0x3cbadc38	0.022810087
39	0xbd5c4edd	-0.053786147
40	0x3d283e10	0.041074812
41	0xbe98c8ad	-0.29840603
42	0xbe3e2e22	-0.18572286
43	0x3d630a6d	0.055429865
44	0xbe45b69b	-0.1930794
45	0xbe29835f	-0.1655402
46	0xbdb583bd	-0.08863018
47	0xbddc39e4	-0.10753229
48	0xbd90dfeb	-0.07073959
49	0xbe1f8a15	-0.15580018
50	0xbe9eed5f	-0.31040475
51	0x3b14ad25	0.002268621
52	0xbdb8b0d3	-0.090181015
53	0xbdd8e543	-0.10590603
54	0xbcaf94af	-0.021433203
55	0xbe0e320b	-0.13886277
56	0xbe3d8344	-0.18507105
57	0xbda2e6cd	-0.07954178
58	0xbd3ee520	-0.04660523
59	0xbe11bc36	-0.14231953
60	0xbe1bc487	-0.15211688
61	0x3e64f49c	0.22358936
62	0x3d51bf68	0.05120793
63	0xbe70a929	-0.2350203
64	0x3c8d90a1	0.017280878
65	0xbd8abc85	-0.067742385
66	0x3d5a6af3	0.05332465
67	0xbcfe8cfa	-0.031073082
68	0xbd9527a9	-0.07282955
69	0x3d91d4e3	0.07120683
70	0xbd5617da	-0.05226884
71	0xbe2cb350	-0.16865277
72	0x3bd88857	0.00660805
73	0xbd5e16b8	-0.054220885
74	0xbbd22157	-0.006412666
75	0xbe3b348c	-0.18281764
76	0xbe2c299b	-0.16812746
77	0x3cf13134	0.029442407
78	0xbaa961c7	-0.0012922817
79	0xbdeed573	-0.11661806
80	0xbe1f1fa0	-0.15539408
81	0x3d3889fa	0.04505346
82	0xbe2466e1	-0.1605487
83	0xbe71a082	-0.23596385
84	0xbddaf64a	-0.10691507
85	0xbc966ea2	-0.0183633
86	0xbd967507	-0.0734654
87	0xbd85fd6b	-0.06542476
88	0xbda587cf	-0.08082544
89	0xbe1a4c8c	-0.15068263
90	0xbc9cf0b5	-0.019157747
91	0xbe36a945	-0.17838009
92	0xbd2958f7	-0.04134461
93	0xbdd27210	-0.10275662
94	0xbe191dce	-0.14952776
95	0xbd4a24b1	-0.049351398
96	0xbce71372	-0.028207514
97	0xbbcbd744	-0.00622073
98	0xbc1c9c2f	-0.009558721
99	0xbeb06c01	-0.344574
100	0xbee2af23	-0.44274244
101	0x3d8d819b	0.06909486
102	0xbe56b53d	-0.20967574
103	0xbdca170f	-0.09867679
104	0x3d6f955a	0.058492042
105	0xbeb9efbf	-0.36315724
106	0x3dceda42	0.10100223
107	0xbe205ccb	-0.15660398
108	0xbdb9292c	-0.09041056
109	0xbd47ab65	-0.04874744
110	0xbe0f0466	-0.13966522
111	0x3ce13263	0.027489847
112	0xbd900cb0	-0.0703367
113	0xbc751f83	-0.014961126
114	0xbe06b59b	-0.13155214
115	0xbe4f151c	-0.20222896
116	0xbd05383e	-0.03252434
117	0xbddf4b0a	-0.109029844
118	0x3c107818	0.008817695
119	0xbcdc1a5a	-0.026868034
120	0xbcfc2122	-0.030777518
121	0xbdd0688c	-0.10176191
122	0xbc10b9e4	-0.008833382
123	0x3d864caf	0.06557595
124	0xbd918324	-0.07105091
125	0xbec1cf1d	-0.37853327
126	0xbdf68914	-0.12037864
127	0xbd67b70b	-0.056571048
128	0xbc03b96e	-0.008039815
129	0x3cfb66ae	0.03068861
130	0x3d813557	0.06309002
131	0xbec926c2	-0.39287382
132	0x3e0b28e0	0.13589811
133	0x3df7c017	0.12097185
134	0xbea4e8a2	-0.32208735
135	0xbde4500d	-0.11148081
136	0xbd56d264	-0.052446738
137	0xbd491984	-0.0490966
138	0xbd29944d	-0.041401196
139	0xbf02c729	-0.51085144
140	0x3cbfd585	0.023417244
141	0x3adc1306	0.0016790337
142	0xbe2254ae	-0.15852615
143	0xbda6ba25	-0.08140973
144	0xbe4d47c8	-0.20046914
145	0xbcaee138	-0.021347627
146	0xbceaad87	-0.028647197
147	0xbe9affe9	-0.3027337
148	0xbdcac968	-0.099016964
149	0xbe9305ff	-0.28715512
150	0xbf0f260b	-0.55917424
151	0xbdfd9b79	-0.1238317
152	0xbea5f5cc	-0.3241409
153	0x3d1c4171	0.038148347
154	0xbd9af1f4	-0.0756568
155	0xbd820686	-0.063489005
156	0xbe444546	-0.1916705
157	0xbe0fd8d8	-0.14047563
158	0xbd158dde	-0.03651225
159	0xbe7c96be	-0.24666879
160	0xbe420db1	-0.18950535
161	0xbd8d656f	-0.069041125
162	0xbf0d697a	-0.5523907
163	0xbe648da8	-0.22319663
164	0xbb54a660	-0.00324478
165	0x3e38bd66	0.18041
166	0xbde44dd2	-0.111476555
167	0xbd4f25c5	-0.05057313
168	0xbee8707c	-0.4539832
169	0xbea79b53	-0.3273569
170	0xbddd0787	-0.10792451
171	0xbe476b8e	-0.19474623
172	0xbdf4eefa	-0.11959644
173	0x3e5e84b1	0.21730305
174	0xbe150f19	-0.1455654
175	0xbe77b9f8	-0.24192035
176	0xbb11dc69	-0.0022256619
177	0xbebbc5ad	-0.36674252
178	0xbefa7d71	-0.4892383
179	0x3d42e0ec	0.047577783
180	0xbdebbbe5	-0.115104474
181	0xbea65918	-0.32489848
182	0xbcce0cac	-0.025152527
183	0xbe83c324	-0.25734818
184	0xbdb46745	-0.088087596
185	0xbe814782	-0.2524987
186	0x3e289efd	0.16466899
187	0xbdd34814	-0.10316482
188	0xbeecfae0	-0.46285152
189	0xbe38c80f	-0.18045066
190	0x3d021fbd	0.03176855
191	0xbe17f1ef	-0.14838384
192	0xbe6b7e7c	-0.22997469
193	0xbe77da3e	-0.24204347
194	0xbdb5b032	-0.08871497
195	0xbda9c0ad	-0.08288703
196	0xbec059dd	-0.3756856
197	0x3df01679	0.11723036
198	0xbefa5f10	-0.48900652
199	0xbe86e3ce	-0.26345676
200	0xbda0860b	-0.07838067
201	0xbcb600bf	-0.022217153
202	0xbdddbcfc	-0.108270615
203	0xbe59b2cb	-0.2125961
204	0xbdac1b74	-0.08403674
205	0x3ba98da3	0.005174355
206	0x3da9aded	0.08285127
207	0xbe13d93e	-0.1443834
208	0xbde5cf98	-0.11221236
209	0xbede3a0b	-0.43403658
210	0xbe0842fe	-0.13306805
211	0xbe76ba68	-0.24094546
212	0xbdd95c06	-0.10613255
213	0xbd96d5b1	-0.07364977
214	0xbd81c26f	-0.063359134
215	0xbe168680	-0.14699745
216	0xbecfab8a	-0.4056056
217	0x3d8d227c	0.06891343
218	0xbca8718b	-0.020561954
219	0xbe2d778c	-0.16940135
220	0xbe5941f1	-0.21216561
221	0xbe901bce	-0.28146213
222	0xbece3866	-0.40277404
223	0xbe253269	-0.16132511
224	0xbef8dde7	-0.48606798
225	0xbac16b5a	-0.0014756725
226	0xbdec1eb7	-0.11529296
227	0xbf0d4b69	-0.5519319
228	0xbf348387	-0.70513195
229	0xbcda4648	-0.02664484
230	0xbca706ee	-0.020389047
231	0xbed8590b	-0.42255434
232	0x3d75bcb1	0.059994403
233	0xbef75335	-0.4830567
234	0x3d816cea	0.06319602
235	0xbe4e7aa8	-0.20163977
236	0xbdd6627a	-0.10468002
237	0xbc7ed1d6	-0.0155529585
238	0x3db9231d	0.090399005
239	0xbe419d3f	-0.18907641
240	0x3cbb3215	0.02285103
241	0xbe3e1326	-0.18561992
242	0x3ab45c26	0.0013760373
243	0xbe8cf155	-0.27527872
244	0xbeb86c35	-0.36020055
245	0xbe1d3d6f	-0.15355466
246	0xbda3a848	-0.079910815
247	0xbe2cc90e	-0.16873571
248	0xbdad7437	-0.08469432
249	0xbeabe3d2	-0.3357225
250	0xbb60ba4a	-0.0034290724
251	0x3dc7022d	0.09717212
252	0xbded7f51	-0.11596549
253	0xbd2d2150	-0.042268097
254	0xbe03fdd4	-0.12889796
255	0xbd0f64b5	-0.03500815

network.6.bias f4 [64]
0	0xbe53bd7f	-0.20677756
1	0xbeb614d6	-0.35562772
2	0x3ef537e8	0.47894216
3	0x3d73f5a4	0.059560433
4	0xbddc11d2	-0.107455865
5	0xbe349960	-0.17636633
6	0xbf0194f4	-0.5061791
7	0xbe8ff6ce	-0.28117985
8	0xbe893879	-0.26800898
9	0xbeb674e4	-0.35636055
10	0xbecd07e3	-0.4004508
11	0xbf0ebab1	-0.5575362
12	0xbe813a23	-0.25239667
13	0xbe22e949	-0.15909304
14	0xbf7de8b1	-0.99183184
15	0xbec1f6fb	-0.37883744
16	0xbeb7ec57	-0.359225
17	0xbf0dd3da	-0.55401385
18	0x3d8223a2	0.06354453
19	0xbd6165b5	-0.055028636
20	0xbe2ebbd1	-0.17063834
21	0xbf3985ef	-0.7246999
22	0xbebd810e	-0.37012523
23	0x3e9a92cf	0.3019013
24	0x3eed011d	0.46289912
25	0xbeb33553	-0.3500162
26	0x3e58b3ba	0.2116231
27	0xbec5e3b7	-0.38650295
28	0xbf35b0f0	-0.7097311
29	0xbed8deff	-0.42357633
30	0xbd6f52fe	-0.058428757
31	0x3f1c9049	0.6115766
32	0xbf0730ef	-0.5280904
33	0xbf7108c6	-0.9415401
34	0xbeae353c	-0.3402499
35	0x3f0987fb	0.53723115
36	0xbec9b858	-0.39398456
37	0x3d94037e	0.072272286
38	0xbe9b7706	-0.30364245
39	0xbea6c23c	-0.32570064
40	0xbe4ed2d2	-0.20197609
41	0x3bd9dee6	0.006648886
42	0xbeb9be15	-0.36277834
43	0xbf4b295f	-0.7936
44	0xbd9aeed6	-0.075650856
45	0xbec4ad8c	-0.38413656
46	0xbe96a7b8	-0.29424834
47	0x3f277f06	0.654282
48	0xbe90b369	-0.2826188
49	0xbec78f98	-0.3897674
50	0x3e1ced9e	0.15325019
51	0xbf09bb1a	-0.5380112
52	0xbe359342	-0.17731956
53	0xbdf88081	-0.12133885
54	0xbe9f3a7c	-0.31099308
55	0xbf4a7843	-0.79089755
56	0xbf72b7c3	-0.9481165
57	0xbd1a602e	-0.03768938
58	0xbf037ad6	-0.5135931
59	0x3f08eadf	0.53483385
60	0x3ee01b4f	0.43770835
61	0x3ee75329	0.45180634
62	0xbea2b718	-0.31780314
63	0xbe97a056	-0.29614514

network.9.weight f4 [64, 64]
0	0xbddd6b63	-0.10811498
1	0x3d96032b	0.07324823
2	0xbe5f513e	-0.21808335
3	0x3e4eea50	0.2020657
4	0xbdbb7060	-0.09152293
5	0xbdf8419c	-0.12121889
6	0x3d866cc8	0.06563717
7	0xbe20b4e3	-0.15694003
8	0x3e1e8260	0.15479422
9	0xbda745fe	-0.08167647
10	0xbdcc0f51	-0.09963859
11	0xbe28fd17	-0.16502796
12	0x3e239925	0.15976389
13	0xbece0f26	-0.40245932
14	0x3b36a458	0.0027868953
15	0x3e170130	0.14746547
16	0x3e7f7217	0.24945866
17	0xbede5ae3	-0.43428716
18	0xbe22ca8e	-0.15897581
19	0x3de7768d	0.11301909
20	0xbdf130f4	-0.11776915
21	0xbe18df64	-0.14928967
22	0xba5a9b04	-0.0008339139
23	0xbe9b8a03	-0.30378732
24	0xbd08685c	-0.03330265
25	0xbe786414	-0.24256927
26	0xbe3e85b1	-0.18605687
27	0xbe1379d0	-0.14401937
28	0xbd99a1e2	-0.0750158
29	0xbe446050	-0.19177365
30	0xbddc0a45	-0.10744146
31	0xbe732006	-0.23742685
32	0xbc91c9a6	-0.017796349
33	0xbc4ab6a2	-0.012372645
34	0xbe13312f	-0.14374231
35	0xbeec41e1	-0.46144012
36	0xbdd48c44	-0.10378316
37	0xbe608eff	-0.21929549
38	0x3d71bd39	0.059018347
39	0xbd849883	-0.06474402
40	0xbd9add0e	-0.07561694
41	0xbd6a7f2d	-0.05725019
42	0xbef22db1	-0.47300485
43	0x3e318cfb	0.17338936
44	0xbc962a6a	-0.018330771
45	0xbd72831f	-0.059207078
46	0xbe6bb41d	-0.23017927
47	0xbe03ac56	-0.1285871
48	0xbceedea5	-0.0291589
49	0xbd23766e	-0.039907865
50	0x3c8e8051	0.01739517
51	0xbc451f40	-0.012031376
52	0xbc54b3a0	-0.012982279
53	0xbe64805c	-0.2231459
54	0xbcac253d	-0.02101385
55	0xbe30fb01	-0.1728325
56	0x3e03e887	0.12881671
57	0xbd746863	-0.059669863
58	0x3d713dce	0.058896832
59	0xbe6fcb84	-0.23417479
60	0xbed5012e	-0.41602463
61	0xbde533fb	-0.11191555
62	0xbeac75a7	-0.33683512
63	0xbc1cec60	-0.009577841
64	0xbdeaa3dd	-0.11457036
65	0xbe81178d	-0.2521328
66	0xbd8de970	-0.0692929
67	0xbe58757c	-0.21138567
68	0xbe2b9d83	-0.16759305
69	0x3b239e82	0.0024966304
70	0xbe5a909a	-0.21344224
71	0xbd7cfb9f	-0.061763402
72	0xbd494b57	-0.049144115
73	0xbe016e36	-0.12639698
74	0xbd7382f4	-0.05945106
75	0xbc01396f	-0.007887228
76	0x3cf78581	0.030215027
77	0xbd103b25	-0.035212655
78	0xbd195d4a	-0.037442483
79	0xbd302500	-0.043004036
80	0xbd886c78	-0.06661314
81	0xbd115a9d	-0.035486806
82	0xbe049ff8	-0.12951648
83	0xbda09a16	-0.078418896
84	0xbce0a7e0	-0.027423799
85	0xbd938dd9	-0.0720479
86	0xbd1eac53	-0.03873856
87	0xbd63a685	-0.055578727
88	0xbdcdde02	-0.1005211
89	0xbe29d26f	-0.1658418
90	0xbdf24939	-0.11830372
91	0xbe05e46e	-0.1307542
92	0xbcf8aa20	-0.03035456
93	0xbd9886d6	-0.07447593
94	0xbb7ef5d2	-0.0038903845
95	0xbe0856b9	-0.13314332
96	0xbe356b78	-0.17716777
97	0xbb841bb2	-0.004031622
98	0xbdf8dfba	-0.121520475
99	0xbdc875fa	-0.09788127
100	0xbe122f46	-0.14275846
101	0xbe047b95	-0.12937768
102	0xbd23bd52	-0.03997547
103	0xbbe52492	-0.006992885
104	0xbdb7c4f8	-0.08973116
105	0xbe18640a	-0.14881912
106	0x3c5406d1	0.012941078
107	0xbde5e573	-0.112254046
108	0xbd8d35b2	-0.06895007
109	0xbd9aa081	-0.07550145
110	0xbe51a40b	-0.20472734
111	0xbe1a667d	-0.15078159
112	0xbd6aee08	-0.05735591
113	0xbdb9951a	-0.09061642
114	0xbe4a4ff5	-0.19757064
115	0xbda17fbe	-0.07885693
116	0xbe38588b	-0.18002526
117	0xbe22cf3c	-0.15899366
118	0xbe2d41e6	-0.1691967
119	0xbd8aadd7	-0.067714386
120	0xbb5645c8	-0.0032695401
121	0xbdd77ca3	-0.105218194
122	0x3d58b3c3	0.05290581
123	0xbd242710	-0.040076315
124	0xbe829ffe	-0.2551269
125	0xbe69ae8f	-0.22820495
126	0xbda65f28	-0.08123618
127	0xbdc55133	-0.09634628
128	0xbb778246	-0.0037766858
129	0x3e4e38bd	0.20138831
130	0x3ddfb3e1	0.10922981
131	0x3d57d2a4	0.052691117
132	0xbe6bcf0b	-0.230282
133	0xbea605dc	-0.32426345
134	0x3e00a173	0.12561588
135	0x3e41fe66	0.18944702
136	0x3d8929cf	0.066974275
137	0xbe1bce8d	-0.15215512
138	0x3c57d39c	0.01317301
139	0xbd05bc93	-0.03265054
140	0xbdc60429	-0.09668762
141	0x3d278be9	0.040904913
142	0x3dba0adc	0.090841025
143	0xbc59037f	-0.013245462
144	0xbca5bd4c	-0.020231865
145	0x3c89737e	0.016778704
146	0xbda99f22	-0.08282305
147	0x3e18fc08	0.14939892
148	0xbe8369b6	-0.2566659
149	0xbe453b0b	-0.19260804
150	0x3e297bcf	0.16551135
151	0xbefd783c	-0.49505794
152	0x3dbf888e	0.093522176
153	0x3d634c2f	0.055492576
154	0x3e556b6a	0.20841756
155	0xbe24853b	-0.16066448
156	0xbd975561	-0.073893316
157	0x3ebbbb1d	0.36666194
158	0x3d23e493	0.040012907
159	0x3da3de4f	0.080013864
160	0x3c5d8047	0.013519353
161	0xbe7d2501	-0.24721147
162	0xbdc1cd94	-0.09463039
163	0x3df1573b	0.11784216
164	0xbd66b23b	-0.056322318
165	0x3c92a057	0.017898722
166	0xbe0a919b	-0.13532107
167	0xbba08da4	-0.0048996974
168	0xbde8f34b	-0.113745295
169	0xbab4462c	-0.0013753823
170	0x3d349bc6	0.04409387
171	0xbca93798	-0.020656392
172	0x3d1af89c	0.03783475
173	0xbdac0f41	-0.08401347
174	0x3e49e5ff	0.19716643
175	0x3cffc93b	0.031223884
176	0xbd33d480	-0.043903828
177	0xbe75362f	-0.2394645
178	0x3e236f8b	0.15960519
179	0xbe357160	-0.1771903
180	0x3e2639c5	0.16232975
181	0xbedb8030	-0.42871237
182	0xbe096345	-0.13416775
183	0xbe1ee308	-0.15516293
184	0x3b68eabb	0.00355403
185	0xbe20c19e	-0.15698859
186	0xbe882db9	-0.26597384
187	0xbd301070	-0.042984426
188	0x3c8045ef	0.015658347
189	0xbcd0ee91	-0.025504382
190	0xbe198caf	-0.14995073
191	0xbde9a033	-0.11407509
192	0xbe14d042	-0.14532569
193	0xbd043ee8	-0.032286555
194	0xbe9c3a0d	-0.3051304
195	0x3d5879fa	0.0528507
196	0xbdf2b07c	-0.11850068
197	0xbd980742	-0.07423259
198	0x3db43b0b	0.08800324
199	0x3d5f4b55	0.0545152
200	0xbe153e32	-0.14574507
201	0xbd9773ae	-0.07395111
202	0xbdb62570	-0.088938594
203	0xbce71227	-0.028206898
204	0x3d1e94ef	0.038716253
205	0xbe14be8c	-0.14525813
206	0xbe679bb5	-0.22617991
207	0xbe4a53fd	-0.19758601
208	0xbea92dd1	-0.33042768
209	0xbebf09b1	-0.3731208
210	0xbe0d7634	-0.13814622
211	0xbdea32b8	-0.11435455
212	0xbd4a4b06	-0.049387954
213	0xbe3f045f	-0.18654011
214	0xbe9c701b	-0.3055428
215	0xbeaa37d0	-0.33245707
216	0xbed6b909	-0.41938046
217	0xbe2e6b57	-0.17033134
218	0xbe6a1ff4	-0.22863752
219	0x3ca776b6	0.020442348
220	0xbf0de939	-0.55433995
221	0xbe5db3c5	-0.21650608
222	0x3c98721d	0.018609101
223	0xbef28618	-0.4736793
224	0xbe863ab8	-0.26216674
225	0xbea6c37c	-0.32571018
226	0xbe07c1cc	-0.13257521
227	0xbe4d78c8	-0.20065606
228	0xbe08b063	-0.13348536
229	0xbe308eac	-0.17241925
230	0xbd237250	-0.03990394
231	0xbdfdedc6	-0.12398867
232	0xbb32af68	-0.0027265195
233	0x3d7779dd	0.060418952
234	0xbe3fa72d	-0.18716116
235	0xbd2072fa	-0.03917215
236	0xbe04a000	-0.1295166
237	0x3df10cd3	0.11770024
238	0x3dfa5437	0.12223094
239	0xbe04d097	-0.12970196
240	0xbd8f1bb0	-0.06987703
241	0xbe3267d2	-0.17422417
242	0xbec436d2	-0.38323075
243	0xbe5f03ec	-0.2177884
244	0xbd5de598	-0.054174036
245	0xbeb19f63	-0.34691915
246	0xbca1bd43	-0.019743567
247	0xbc6808bd	-0.01416224
248	0xbdd07969	-0.10179407
249	0xbdedee12	-0.11617674
250	0xbae6f982	-0.0017621967
251	0xbe4ec89d	-0.20193715
252	0xbf02243e	-0.5083655
253	0xbe0f88b7	-0.14016996
254	0x3df897de	0.12138341
255	0xbdff9ce4	-0.124810964

network.9.bias f4 [64]
0	0xbef5bc4d	-0.47995225
1	0xbebaa8bf	-0.36456868
2	0x3f03de16	0.5151075
3	0x3d05f99a	0.03270874
4	0x3f5c474a	0.8604628
5	0x3f916615	1.1359278
6	0x3f132f3a	0.57493937
7	0x3ec409a0	0.38288593
8	0x3ecf5090	0.40491152
9	0x3e9bf16d	0.3045763
10	0xbe9a5131	-0.3014007
11	0xbf257f5b	-0.64647454
12	0x3ee66da1	0.45005515
13	0xbd32bb89	-0.04363588
14	0x3ee75327	0.45180628
15	0x3f00cf84	0.50316644
16	0xbf212719	-0.62950283
17	0xbc324287	-0.010880119
18	0x3f05e128	0.52296686
19	0x3f3bd438	0.73370695
20	0xbeb4762d	-0.3524641
21	0x3edd5265	0.43226925
22	0xbeef67e0	-0.46758938
23	0xbf4d4c3c	-0.8019445
24	0x3f3d56d1	0.73960596
25	0x3ec1a0ed	0.3781809
26	0x3f15a222	0.5845052
27	0xbe4644be	-0.1936216
28	0xbdfaafcb	-0.12240561
29	0x3f248c58	0.6427665
30	0xbeb49904	-0.35272992
31	0x3c90b7bc	0.017665736
32	0xbe5a5929	-0.21323074
33	0x3f1665f5	0.58749324
34	0xbf1d4315	-0.61430484
35	0xbd880f3d	-0.066435315
36	0xbe820c88	-0.25400186
37	0xbee948eb	-0.45563444
38	0x3e11ab9c	0.1422562
39	0x3e339b42	0.17539695
40	0x3f9b8797	1.2150754
41	0x3f8a0305	1.0782171
42	0xbebe7857	-0.37201187
43	0xbe94eeba	-0.29088384
44	0x3e860d52	0.26182038
45	0xbe2d5b58	-0.16929376
46	0x3e380e51	0.17974211
47	0xbb174271	-0.0023080374
48	0x3de2b477	0.11069577
49	0x3e91662d	0.28398266
50	0x3ee038eb	0.43793425
51	0xbde06506	-0.10956769
52	0xbebd3092	-0.3695112
53	0x3e3ad28f	0.18244384
54	0x3e92c186	0.28663272
55	0x3f0e70e4	0.5564101
56	0xbe991991	-0.29902318
57	0xbee1f7e5	-0.4413444
58	0x3e81a68e	0.25322384
59	0xbc9be9a7	-0.019032313
60	0x3ee894b8	0.45425963
61	0x3f9a2c8e	1.2044847
62	0xbe589f2d	-0.2115447
63	0x3ec4c53e	0.38431734

network.12.weight f4 [1, 64]
0	0x3ca1c901	0.019749166
1	0x3b85e4e0	0.004086122
2	0xbc4eb8a0	-0.01261726
3	0x3d513c27	0.051082756
4	0xbd6336b5	-0.055472095
5	0xbcc561bf	-0.02409446
6	0x3cb43e9c	0.02200251
7	0xbc75e392	-0.01500787
8	0xbd3e2a11	-0.046426836
9	0x3d907a1b	0.0705454
10	0xbd3cb0ae	-0.046066932
11	0x3d136ff2	0.03599543
12	0xbd082fa1	-0.033248547
13	0x3d17e64e	0.03708487
14	0xbcf366a6	-0.029712033
15	0x3ce4e920	0.027943194
16	0x3d5daa67	0.054117586
17	0xbcf95f65	-0.030440995
18	0x3d42de61	0.04757536
19	0x3d193c41	0.03741098
20	0x3dd22ba8	0.10262233
21	0xbd06021f	-0.032716867
22	0x3cdfa890	0.027302057
23	0xbc81d7b8	-0.015849933
24	0x3d7007cc	0.058601186
25	0x3ca46081	0.020065548
26	0xbd9fd280	-0.078038216
27	0x3bb2f36d	0.0054611475
28	0x3d094ec5	0.033522386
29	0x3d91b573	0.07114687
30	0x3cb71138	0.022347078
31	0x3cf24a17	0.029576344
32	0x3be98b87	0.0071272287
33	0xbcc048ba	-0.023472179
34	0x3c900a32	0.017582987
35	0xbcb57ad7	-0.022153301
36	0xbd30e71e	-0.04318916
37	0xbd1f3965	-0.038873095
38	0x3dae10c4	0.084992915
39	0xbcca1fb2	-0.024673317
40	0xbbf06f36	-0.007337476
41	0x3d81b56a	0.0633343
42	0x3e2285b0	0.1587131
43	0xbc34abea	-0.011027316
44	0x3c977d7e	0.018492457
45	0x3e1d3c50	0.15355039
46	0x3d73bc97	0.059506025
47	0xbd42ac47	-0.047527578
48	0xbd1ab38d	-0.03776889
49	0x3db03b70	0.08605087
50	0xbcd23734	-0.025661089
51	0x3bc2415b	0.005928201
52	0xbd53ae45	-0.05167987
53	0x3da8d89d	0.08244441
54	0x3dac82b9	0.08423371
55	0x3cd6d94d	0.026226664
56	0xbcaa83b0	-0.020814747
57	0xbd247d08	-0.0401583
58	0x3d195910	0.037438452
59	0x3deb7f54	0.11498895
60	0x3c249e0a	0.010047445
61	0xbc48774e	-0.012235476
62	0xbc71194f	-0.014715507
63	0x3c4d9515	0.012547751
